src/conv_based/checkpoint/waveletEGGNet.pth (torch, 32109 bytes, 18 tensors)

model.convtoEGG.weight f4 [1, 30, 1, 1]
0.12061283 -0.05238071 0.16266693 0.1259659 0.07035782 0.13286786 -0.07209111 0.067714624
0.13314295 -0.14400814 -0.04364883 0.114148706 0.19043061 0.14543386 0.051706877 0.022142565
-0.16247353 0.100247376 -0.13103177 -0.16277322 0.061999895 -0.053504728 -0.19320074 0.072301604
0.0665506 -0.13448153 -0.12540233 0.08155868 -0.16084903 0.14973266
00000000: dc03 f73d 288d 56bd 2992 263e 34fd 003e
00000010: c317 903d 830e 083e 81a4 93bd f7ad 8a3d
00000020: a056 083e df76 13be 1ec9 32bd ccc6 e93d
00000030: 3e00 433e 9dec 143e 97ca 533d 5364 b53c
00000040: 765f 26be 7f4e cd3d 312d 06be 06ae 26be
00000050: 9af3 7d3d c627 5bbd 6ad6 45be dd12 943d
00000060: ae4b 883d 87b5 09be 7869 00be 3d08 a73d
00000070: 9cb5 24be 8553 193e

model.conv1.0.weight f4 [8, 1, 1, 64]
-0.096503474 -0.0008079421 -0.09574364 -0.108162306 -0.095868364 -3.7318754e-05 0.073965706 -0.10206498
-0.070169024 0.03213562 0.020605952 -0.059066623 -0.0151912095 0.116304055 0.08285547 -0.06751921
-0.012933825 0.113643005 0.017445266 -0.04781869 0.05217803 0.10768162 0.03460676 -0.1243722
-0.005490481 0.049871802 0.10507817 -0.117768876 0.05189751 0.022199318 -0.048385542 0.002290145
0.07237094 0.0074143265 0.07099496 -0.08143359 0.061134446 -0.009892799 0.032448888 0.032563504
-0.05002448 -0.016893229 0.11670076 0.03728093 0.060743436 0.08784718 0.043574363 -0.058626015
-0.0320494 -0.09975998 0.11735348 -0.067420766 0.019204581 0.094291836 0.002006731 0.075658225
-0.08278353 -0.07703859 -0.110899724 -0.074638635 -0.061528206 -0.014564409 0.01802784 0.07884387
0.042743362 -0.09194924 -0.11487388 -0.13217765 0.06852473 -0.05066199 0.022922117 -0.044216678
0.10289876 -0.075540565 0.104635276 -0.12345687 0.027624872 -0.05202114 -0.009098781 -0.03525866
0.072983086 -0.09386434 -0.028098768 0.057387453 0.06166592 -0.0042790915 0.040479682 -0.04405977
0.06550499 0.028417252 -0.004220886 -0.04024865 0.061929606 -0.1000984 0.08559235 -0.04104163
0.053934053 -0.018444246 -0.03411121 -0.058262713 -0.050583426 0.11741289 0.036823094 0.07845138
-0.084637016 -0.090497196 0.05621457 -0.10294323 0.07762284 -0.009205316 0.09632858 0.025777822
0.12040725 -0.10210781 -0.0025045164 0.016321795 0.019894676 0.06762619 0.05516798 -0.046878
-0.03659556 0.11156387 0.10295747 0.0069837174 -0.0387565 -0.091832966 -0.0041246195 0.098232135
0.06366952 -0.07219859 -0.08106838 -0.04205251 0.095421985 -0.11511636 0.12438509 0.10049774
0.013897034 0.015949538 0.044322558 0.078425385 -0.05017559 0.0775897 0.014588122 0.10009541
-0.036370803 0.06692823 -0.087937 0.09089496 0.04889868 -0.059788145 -0.033362374 -0.0015235236
-0.07825403 0.006577136 -0.03439776 -0.009073624 0.07135567 0.085705265 -0.09086367 0.122494385
-0.065355234 0.008257937 -0.011850584 0.028676786 0.07897149 0.05800897 -0.121409334 -0.11053712
0.0034961514 0.02401043 -0.076737426 -0.10066845 0.09181106 -0.07911543 0.057725642 -0.0028493814
-0.09056382 0.070279576 -0.007965843 -0.07412093 0.097700216 0.065913066 -0.051698443 -0.10541994
-0.093056016 0.10831554 -0.091887526 -0.070576355 -0.003924836 -0.070221834 -0.074321195 0.010885619
0.051925696 0.060503755 -0.086307175 0.11893759 -0.028743189 0.0970894 -0.084710754 -0.113926224
-0.05906574 0.07970357 -0.07815368 0.10704017 0.08632531 0.080359705 0.013778729 -0.0075498945
-0.07803007 -0.024203874 0.097054504 0.001413819 0.059401914 0.017725946 0.120017804 -0.06461938
0.07797832 -0.00486852 0.097762235 0.0016341156 0.079995476 -0.04436777 0.12240363 -0.10742384
-0.012677487 -0.10428473 -0.017134978 -0.08811355 0.035546824 0.0642026 0.017870035 0.05815852
-0.0069460906 0.019350287 -0.04413227 -0.1209326 -0.019669091 0.059164774 0.063639745 -0.019343948
-0.08375849 0.03179033 0.012359724 0.09632983 0.07494653 0.056238823 -0.007888535 0.06034888
-0.030774204 -0.045063134 -0.048788127 0.09064352 -0.06382219 0.029587217 -0.08379911 -0.07375706
00000000: 9da3 c5bd 14cc 53ba 3e15 c4bd 3384 ddbd
00000010: a256 c4bd b586 1cb8 557b 973d 7207 d1bd
00000020: c7b4 8fbd a4a0 033d d0cd a83c d8ef 71bd
00000030: 8de4 78bc d230 ee3d 21b0 a93d 8347 8abd
00000040: 65e8 53bc aabd e83d 60e9 8e3c 88dd 43bd
00000050: a1b8 553d 2e88 dc3d d1bf 0d3d dab6 febd
00000060: 7ee9 b3bb 6046 4c3d 3933 d73d cf30 f1bd
00000070: 7c92 543d 58db b53c eb2f 46bd 4216 163b
00000080: 3737 943d e1f3 f23b ce65 913d a7c6 a6bd
00000090: 1d68 7a3d 6815 22bc 20e9 043d 4f61 053d
000000a0: 78e6 4cbd ab63 8abc cf00 ef3d e3b3 183d
000000b0: 1cce 783d 39e9 b33d 087b 323d d521 70bd
000000c0: 3b46 03bd f64e ccbd 0557 f03d e613 8abd
000000d0: ed52 9d3c 141c c13d 5c83 033b b3f2 9a3d
000000e0: 698a a9bd 69c6 9dbd 651f e3bd 24dc 98bd
000000f0: 0005 7cbd 8f9f 6ebc 1faf 933c e578 a13d
00000100: aa13 2f3d e24f bcbd ff42 ebbd 9459 07be
00000110: b256 8c3d f282 4fbd 2ac7 bb3c 8c1c 35bd
00000120: 96bc d23d 03b5 9abd 054b d63d f5d6 fcbd
00000130: 8e4d e23c 1e14 55bd 0e13 15bc 626b 10bd
00000140: 2878 953d f23b c0bd 632f e6bc 1b0f 6b3d
00000150: 6795 7c3d 9f37 8cbb 06ce 253d 0478 34bd
00000160: 7b27 863d 4ccb e83c 5c4f 8abb c5db 24bd
00000170: e6a9 7d3d 6400 cdbd 0b4b af3d 451b 28bd
00000180: f4e9 5c3d 6318 97bc 32b8 0bbd e2a4 6ebd
00000190: 9130 4fbd 2b76 f03d d0d3 163d 1eab a03d
000001a0: 2c56 adbd 9856 b9bd 4041 663d e6d3 d2bd
000001b0: b9f8 9e3d e5d1 16bc eb47 c53d 032c d33c
000001c0: 1498 f63d e61d d1bd d022 24bb 49b5 853c
000001d0: 29fa a23c 9a7f 8a3d d2f7 613d 2503 40bd
000001e0: 3ae5 15bd 997b e43d 5edb d23d abd7 e43b
000001f0: 23bf 1ebd ec12 bcbd d127 87bb ee2d c93d
00000200: 2a65 823d dbdc 93bd 2e07 a6bd 413f 2cbd
00000210: 9a6c c33d 20c2 ebbd 9cbd fe3d c2d1 cd3d
00000220: 63b0 633c 9ba8 823c 928b 353d 7d9d a03d
00000230: eb84 4dbd 59e7 9e3d 0503 6f3c d3fe cc3d
00000240: 8df9 14bd ab11 893d 5018 b4bd 2327 ba3d
00000250: fb49 483d 6ae4 74bd fca6 08bd f8b0 c7ba
00000260: a643 a0bd 0485 d73b aae4 0cbd 8aa9 14bc
00000270: ec22 923d 3e86 af3d bb16 babd 56de fa3d
00000280: f7d8 85bd 4c4c 073c f428 42bc 94eb ea3c
00000290: cebb a13d d09a 6d3d 75a5 f8bd 4961 e2bd
000002a0: b01f 653b 85b1 c43c 8328 9dbd 432b cebd
000002b0: 7007 bc3d 4507 a2bd b971 6c3d b0bc 3abb
000002c0: 8679 b9bd bdee 8f3d 2b83 02bc b7cc 97bd
000002d0: 0d17 c83d 6efd 863d bfc1 53bd 69e6 d7bd
000002e0: 2794 bebd 8ad4 dd3d 872f bcbd 568a 90bd
000002f0: e99b 80bb 77d0 8fbd b635 98bd 9859 323c
00000300: 0ab0 543d c9d2 773d d1c1 b0bd 8d95 f33d
00000310: d676 ebbc cfd6 c63d d57c adbd 2752 e9bd
00000320: ebee 71bd a03b a33d 090f a0bd e037 db3d
00000330: 53cb b03d a193 a43d 2ec0 613c 1b65 f7bb
00000340: 3bce 9fbd 3447 c6bc 83c4 c63d e54f b93a
00000350: 6c4f 733d 0136 913c e5cb f53d 2a57 84bd
00000360: 19b3 9f3d 1b88 9fbb 9137 c83d d22f d63a
00000370: abd4 a33d fbba 35bd c1ae fa3d 0801 dcbd
00000380: 3cb5 4fbc 3c93 d5bd a75e 8cbc e074 b4bd
00000390: 8c99 113d a77c 833d 2e64 923c a137 6e3d
000003a0: 089c e3bb 7e84 9e3c 0ac4 34bd 83ab f7bd
000003b0: 1321 a1bc c356 723d 8e55 823d 3377 9ebc
000003c0: 9289 abbd 9436 023d 7180 4a3c 9348 c53d
000003d0: 917d 993d ae5a 663d ea3e 01bc 6330 773d
000003e0: 2f1a fcbc 1f94 38bd 0fd6 47bd 4fa3 b93d
000003f0: 35b5 82bd e460 f23c de9e abbd f10d 97bd

model.conv1.1.weight f4 [8]
0.92527974 0.9252749 0.92527413 0.9252753 0.9252788 0.92527866 0.9252771 0.92527604
00000000: 22df 6c3f d1de 6c3f c4de 6c3f d8de 6c3f
00000010: 12df 6c3f 10df 6c3f f6de 6c3f e4de 6c3f

model.conv1.1.bias f4 [8]
-4.2372576e-06 1.2806048e-05 -4.853839e-06 1.8641798e-05 -4.1065796e-06 1.8079736e-06 -3.5112416e-06 1.743286e-05
00000000: c42d 8eb6 8fd9 5637 29de a2b6 f560 9c37
00000010: 40cb 89b6 80a9 f235 aca2 6bb6 c83c 9237

model.conv1.1.running_mean f4 [8]
6.766437e-06 5.1462524e-05 -4.3117034e-05 2.3821212e-05 8.08895e-05 4.6464684e-05 6.090792e-05 6.6052066e-06
00000000: 400b e336 77d9 5738 90d8 34b8 aad3 c737
00000010: 38a3 a938 13e3 4238 6277 7f38 4ba2 dd36

model.conv1.1.running_var f4 [8]
0.14159709 0.083896086 0.13303055 0.13614522 0.21694839 0.20996147 0.16436179 0.12436862
00000000: d4fe 103e b6d1 ab3d 2939 083e a769 0b3e
00000010: b827 5e3e 2400 573e 754e 283e fab4 fe3d

model.conv1.2.weight f4 [16, 1, 64, 1]
-0.10379477 -0.114041924 0.087311745 0.06922373 0.008548101 0.05559765 0.08337123 -0.102145545
0.07410151 0.070126176 -0.09933472 0.102917776 0.0592277 -0.058855504 0.044097506 -0.026444273
-0.04987419 -0.1024539 -0.007734755 -0.07616207 0.05016764 -0.03940955 0.048703596 -0.026204154
0.028441176 0.009625023 0.077281155 -0.03517912 -0.09553738 0.002347531 0.019512981 -0.04596362
-0.035197508 0.06752083 0.084913366 -0.027238645 0.016464807 0.12018947 -0.05765459 0.057317544
0.06509778 -0.029006144 0.02749199 -0.11626894 0.09681678 -0.054539427 -0.052682072 -0.08413708
-0.10318465 -0.00041675838 0.020795723 -0.119482435 0.117256574 0.012318268 0.12775056 0.1200212
0.08353187 -0.08819729 -0.080403574 0.07466891 -0.11572332 0.09797633 -0.08544716 -0.10821064
0.108888075 0.08682494 0.13459246 -0.06361204 -0.10589328 -0.0693767 -0.112628825 -0.007856962
0.023268906 0.01700776 -0.105192564 -0.11552028 0.14081284 0.030395638 -0.1064039 0.061814547
0.113569014 0.023741784 -0.084715985 0.056710824 -0.115505934 0.11195438 0.03415959 0.08533044
0.079050325 0.034733642 -0.09605442 0.055102784 0.09480104 0.06746796 -0.06570386 0.09629675
-0.038487248 0.07300922 -0.08934716 -0.09407237 -0.06153485 -0.033539627 -0.01798608 0.0980467
-0.03789901 -0.021588024 -0.058484606 -0.11705194 -0.111917764 0.10887179 0.056937646 0.022525014
-0.029187357 0.0036097679 -0.050958443 0.13049778 0.12518708 0.06580999 -0.112389125 0.049166072
0.037865706 0.098708235 0.10278826 -0.122590825 -0.041657776 -0.041918423 -0.02200797 0.014492142
0.09733018 -0.077700056 0.0016040114 -0.06788234 -0.022042252 0.028088937 -0.07921418 -0.04712479
-0.098842375 0.089898355 0.07589548 -0.010195637 -0.061603054 -0.10733173 0.014675275 -0.09573855
0.009772435 0.037695955 -0.08590369 -0.0232647 -0.04950699 -0.06643649 0.1198203 0.06393683
-0.029247198 -0.108149864 -0.045354575 0.06495118 -0.076770216 -0.04217577 0.031603977 -0.02566365
-0.0005809716 -0.066918835 -0.114990875 0.098619685 -0.10972561 0.07885042 -0.0160568 0.10225846
0.007593165 -0.00093713345 0.09772044 0.09241293 0.014703739 0.008396652 -0.023791136 -0.09692912
0.05777747 0.14065053 -0.020231836 0.04093683 0.10616622 -0.11958078 -0.07080965 -0.03195112
-0.13557713 -0.021932146 -0.08563224 -0.04396536 -0.0012481246 -0.008542055 0.004710001 -0.100026034
0.103155985 0.034746803 -0.10276081 -0.1010599 0.11593848 -0.020539217 0.10952924 0.06083656
-0.04510665 0.057493884 -0.0106256865 0.03661215 0.119596325 -0.057750925 -0.017596295 0.0954406
0.020403843 0.0034570175 -0.08341826 0.08004602 0.020100417 -0.11331395 -0.08353079 0.06717025
-0.09135686 0.046117105 -0.07102608 -0.049448624 -0.06302069 0.12588117 -0.043615717 0.012058337
-0.103440456 -0.03564663 -0.104829654 0.078348905 0.08793858 0.035578586 -0.11440108 0.06613219
-0.1166904 -0.020837517 0.05649952 -0.08217214 -0.07792193 0.031228306 -0.0021071706 0.089456476
0.039392777 0.0063240225 -0.10506955 -0.037358608 -0.071414135 -0.027036875 -0.07169757 0.03503193
0.03302394 0.044153627 0.0467744 -0.029431347 0.029488046 0.027544584 0.087754644 0.0627492
00000000: 5a92 d4bd d08e e9bd 80d0 b23d 2cc5 8d3d
00000010: 560d 0c3c 5dba 633d 89be aa3d af31 d1bd
00000020: 88c2 973d 509e 8f3d 0070 cbbd 8ec6 d23d
00000030: bf98 723d 7812 71bd 969f 343d a9a1 d8bc
00000040: e148 4cbd 5ad3 d1bd d473 fdbb dcfa 9bbd
00000050: 957c 4d3d e96b 21bd 6c7d 473d 18aa d6bc
00000060: 78fd e83c 46b2 1d3c 9545 9e3d fb17 10bd
00000070: 1aa9 c3bd 09d9 193b b0d9 9f3c 5944 3cbd
00000080: 432b 10bd 5c48 8a3d 0fe7 ad3d 9423 dfbc
00000090: 34e1 863c e625 f63d 3827 6cbd cdc5 6a3d
000000a0: fc51 853d 4b9e edbc e236 e13c 691e eebd
000000b0: e047 c63d bc64 5fbd 28c9 57bd 1050 acbd
000000c0: 7952 d3bd 5d80 dab9 cb5b aa3c 35b3 f4bd
000000d0: 3724 f03d 90d2 493c 0bd1 023e adcd f53d
000000e0: c212 ab3d c8a0 b4bd a1aa a4bd 03ec 983d
000000f0: 5900 edbd d0a7 c83d ecfe aebd 8a9d ddbd
00000100: b600 df3d 46d1 b13d 9bd2 093e 0747 82bd
00000110: 93de d8bd 5f15 8ebd f1a9 e6bd 7dba 00bc
00000120: 6f9e be3c dc53 8b3c 336f d7bd e695 ecbd
00000130: 3e31 103e 4600 f93c 4aea d9bd 4031 7d3d
00000140: df96 e83d 217e c23c 937f adbd 9c49 683d
00000150: 608e ecbd 5748 e53d edea 0b3d bac1 ae3d
00000160: 23e5 a13d dd44 0e3d 2eb8 c4bd 75b3 613d
00000170: 0c27 c23d a42c 8a3d bf8f 86bd 3b37 c53d
00000180: cea4 1dbd dc85 953d a5fb b6bd 04a9 c0bd
00000190: f80b 7cbd d960 09bd 8b57 93bc b5cc c83d
000001a0: fe3b 1bbd 5ed9 b0bc 8e8d 6fbd edb8 efbd
000001b0: 2435 e5bd 2cf8 de3d 7337 693d 6186 b83c
000001c0: 531a efbc db91 6c3b cdb9 50bd 36a1 053e
000001d0: 0b31 003e 63c7 863d 452c e6bd 5d62 493d
000001e0: 1219 1b3d 8b27 ca3d a782 d23d e610 fbbd
000001f0: 58a1 2abd a7b2 2bbd 0f4a b4bc 7370 6d3c
00000200: 0c55 c73d 3521 9fbd b13d d23a e505 8bbd
00000210: f491 b4bc c51a e63c 0b3b a2bd ec05 41bd
00000220: df6d cabd a11c b83d 176f 9b3d 9a0b 27bc
00000230: 7c53 7cbd bdd0 dbbd 9170 703c 9312 c4bd
00000240: 901c 203c 1367 1a3d 46ee afbd 9d95 bebc
00000250: d7c7 4abd db0f 88bd 5864 f53d 50f1 823d
00000260: d297 efbc ad7d ddbd b8c5 39bd 2005 853d
00000270: b439 9dbd 80c0 2cbd 2c73 013d 933c d2bc
00000280: 584c 18ba be0c 89bd 5680 ebbd 1ef9 c93d
00000290: d2b7 e0bd 547c a13d 8d89 83bc e26c d13d
000002a0: 16d0 f83b f6a9 75ba a721 c83d fe42 bd3d
000002b0: f4e7 703c 1c92 093c a1e5 c2bc c682 c6bd
000002c0: 12a8 6c3d b106 103e 3cbd a5bc 61ad 273d
000002d0: ad6d d93d c5e6 f4bd a604 91bd 2ddf 02bd
000002e0: bbd4 0abe 0bab b3bc f55f afbd 0515 34bd
000002f0: 1d98 a3ba faf3 0bbc 5a56 9a3b 73da ccbd
00000300: 7243 d33d aa52 0e3d 4274 d2bd 7ef8 cebd
00000310: 2771 ed3d dc41 a8bc de50 e03d c22f 793d
00000320: c0c1 38bd b57e 6b3d 5c17 2ebc 9ff6 153d
00000330: ebee f43d 3c8c 6cbd 1b26 90bc 5c76 c33d
00000340: f625 a73c 218f 623b 31d7 aabd 2bef a33d
00000350: a1a9 a43c 2511 e8bd 3112 abbd 8e90 893d
00000360: 4e19 bbbd 4ae5 3c3d 1f76 91bd a48a 4abd
00000370: fe10 81bd fee6 003e 65a6 32bd 5590 453c
00000380: 97d8 d3bd 3302 12bd eeb0 d6bd 6475 a03d
00000390: 2419 b43d daba 113d 1d4b eabd 5070 873d
000003a0: 60fb eebd 71b3 aabc 0a6c 673d de49 a8bd
000003b0: 8895 9fbd 81d2 ff3c 7518 0abb f534 b73d
000003c0: 525a 213d bf39 cf3b b42e d7bd 5705 19bd
000003d0: 9341 92bd 707c ddbc 2dd6 92bd a47d 0f3d
000003e0: 1c44 073d 6fda 343d 8396 3f3d 021a f1bc
000003f0: ea90 f13c 2ea5 e13c b5b8 b33d a782 803d

model.conv1.3.weight f4 [16]
0.964389 0.99691296 0.9935921 0.9745662 0.99981785 0.98768973 0.98569125 0.99612004
0.97480255 0.98580986 0.97840023 0.97183675 0.9788536 0.9735971 0.97795504 0.98408985
00000000: 33e2 763f b035 7f3f 0d5c 7e3f 2c7d 793f
00000010: 10f4 7f3f 3cd9 7c3f 4356 7c3f b901 7f3f
00000020: a98c 793f 095e 7c3f 7078 7a3f 4bca 783f
00000030: 2696 7a3f a93d 793f 435b 7a3f 50ed 7b3f

model.conv1.3.bias f4 [16]
-0.011279186 -0.013305077 0.002429493 -0.010875146 -0.008148218 -0.006177802 -0.015630092 -0.009332567
-0.0066323495 -0.015632669 -0.008017737 -0.007992198 0.002690983 -0.01645337 -0.005080654 0.0005883885
00000000: 56cc 38bc 8afd 59bc 2138 1f3b ab2d 32bc
00000010: 1a80 05bc 296f cabb ae0a 80bc a0e7 18bc
00000020: 2e54 d9bb 1510 80bc d45c 03bc b5f1 02bc
00000030: 345b 303b 38c9 86bc 9d7b a6bb 153e 1a3a

model.conv1.3.running_mean f4 [16]
0.00025792338 0.0008331611 -0.00045623703 -0.0017859037 -0.0052667283 -0.0025739153 -0.00040277332 0.0006581225
-0.0013661296 -0.00022466641 -0.004099122 -0.0012279027 -0.0010252174 0.0033248395 0.0010214953 -0.00079243345
00000000: e439 8739 7f68 5a3a 1933 efb9 fc14 eaba
00000010: 8594 acbb 22af 28bb 522b d3b9 da85 2c3a
00000020: b40f b3ba 6e94 6bb9 ed51 86bb 94f1 a0ba
00000030: 9660 86ba 8de5 593b b2e3 853a 4fbb 4fba

model.conv1.3.running_var f4 [16]
0.22306469 0.10632243 0.22066574 0.28847918 0.3829965 0.3684964 0.19440459 0.110016204
0.1652451 0.23061828 0.33659092 0.23635286 0.5935354 0.24324276 0.2611524 0.18122718
00000000: 126b 643e 93bf d93d 33f6 613e 8bb3 933e
00000010: 1e18 c43e 8fab bc3e ff11 473e 2d50 e13d
00000020: 0336 293e 3327 6c3e a555 ac3e 7c06 723e
00000030: f0f1 173f a114 793e c4b5 853e 9e93 393e

model.separableConv.0.weight f4 [16, 16, 1, 16]
-0.013010654 0.037089474 -0.005837225 -0.039558787 -0.027422074 -0.035573155 0.02133524 0.0432038
-0.037915863 0.05405968 0.043085553 -0.007910531 -0.043700498 0.047451347 0.043919656 -0.0032277228
0.0020934634 -0.008896946 0.024795998 0.04055972 -0.0462075 -0.028564474 -0.009236273 0.0057784487
-0.031683397 -0.035632104 -0.05673816 0.0060495837 0.041677423 0.008764561 -0.03254259 -0.028475326
-0.011023325 0.015434469 0.035566915 -0.027829187 -0.0007255612 0.020486355 0.009792229 -0.02797697
0.016552938 -0.019715358 0.033531267 0.0029544623 0.034309763 -0.079892196 0.015867122 -0.07550343
-0.046563353 0.0247248 0.030969454 -0.030268226 0.05013176 -0.04088808 0.03304512 0.004349809
0.06332075 0.05150446 -0.03926877 0.05746062 -0.03328426 -0.03225826 0.042867973 0.046345994
0.05327024 0.019915588 0.050392326 0.055685233 -0.058374356 0.03848684 0.04385403 0.010790652
-0.005599859 -0.05972756 -0.05164833 0.0103931585 -0.011983723 0.011443987 -0.0016083556 -0.0667892
-0.03497563 0.004111481 -0.048866164 0.011626818 -0.0633985 -0.034059927 0.01709674 -0.034761354
-0.014136353 -0.04392188 0.030287534 0.0025757344 0.015776265 -0.064189315 -0.00695844 0.011106973
0.035734218 -0.023595015 0.030556206 0.03875477 -0.050468955 -0.013184608 0.01743331 0.01726524
0.010761251 0.009013784 -0.01978974 -0.006367561 -0.06498915 -0.0056214104 -0.053608365 -0.020009615
0.03553942 0.018006645 0.059538413 -0.0029130625 0.06062506 -0.056565724 0.018120551 -0.006255772
-0.02781617 -0.00027758966 0.04719846 0.04181216 0.06033696 0.03745449 0.0104669975 0.053684536
0.04113931 -0.009209919 0.032713406 -0.027443968 0.04373396 0.041462254 -0.046403293 0.039175596
-0.017685764 -0.037319336 0.041727357 0.032832425 0.011481331 -0.04127529 0.03749821 -0.004915359
0.042716235 -0.005174375 0.041431706 0.02373103 0.036996093 0.029953267 -0.02485884 0.044499725
-0.01717069 0.028015133 0.03983217 -0.0016283558 0.03015725 0.06192457 0.065621026 -0.0001503405
-0.0051493812 0.03234029 0.017576918 0.020650653 -0.06316878 0.016871935 0.05110481 -0.05542538
0.037199363 0.045547258 -0.057978563 -0.022813134 0.020589167 -0.047935892 0.034014322 0.023448652
-0.027954401 -0.0024371208 -0.034011483 0.02627591 0.053333372 -0.040897697 0.030033316 -0.01676845
0.03196998 0.052370574 -0.004494883 -0.022413699 -0.022845594 0.029844545 -0.03471027 -0.062480178
0.02061526 0.02313303 0.041900642 -0.029961612 0.023405949 -0.0066763135 -0.010748414 -0.015503093
0.03913137 -0.024586963 0.033048242 -0.013524888 0.038854104 -0.012733715 0.0394303 -0.031163922
-0.048302017 0.041615378 -0.02111607 0.029768605 -0.019655362 0.030313129 -0.0055596307 0.048809078
0.029602777 0.021900449 -0.041982282 0.037751924 0.048483174 -0.017173363 -0.027307043 -0.010951015
-0.031000296 0.056662083 0.04014712 -0.05244496 -0.012601434 -0.013122694 0.031744726 -0.04160675
0.027027944 -0.027095215 -0.029824434 -0.07786498 -0.03744802 0.04742735 -0.028350133 0.039102696
-0.0054997085 -0.053509194 -0.0094840815 0.03849707 0.022779087 -0.045299467 0.04754395 -0.053732023
0.04170507 0.059810493 -0.037916727 -0.055622827 -0.048132848 -0.039265092 0.06216475 -0.0047919876
00000000: a32a 55bc 22eb 173d 3146 bfbb 6508 22bd
00000010: 42a4 e0bc 28b5 11bd 3ec7 ae3c 78f6 303d
00000020: aa4d 1bbd af6d 5d3d 7a7a 303d 2c9b 01bc
00000030: 4bff 32bd 585c 423d 19e5 333d 3488 53bb
00000040: 7d32 093b 7fc4 11bc fa20 cb3c f321 263d
00000050: 1344 3dbd 0b00 eabc bd53 17bc 2459 bd3b
00000060: 73c6 01bd f8f2 11bd 4666 68bd 963b c63b
00000070: f2b5 2a3d 3c99 0f3c 614b 05bd 1645 e9bc
00000080: 2d9b 34bc dbe0 7c3c 9dae 113d 09fa e3bc
00000090: 9733 3eba 00d3 a73c 966f 203c f52f e5bc
000000a0: 079a 873c 1a82 a1bc 1558 093d a79f 413b
000000b0: 6588 0c3d 859e a3bd c4fb 813c 8ba1 9abd
000000c0: 37b9 3ebd aa8b ca3c a7b3 fd3c 12f5 f7bc
000000d0: f656 4d3d 427a 27bd 525a 073d d888 8e3b
000000e0: 4fae 813d 57f6 523d 4ad8 20bd d45b 6b3d
000000f0: 1455 08bd 3d21 04bd 5496 2f3d 4cd5 3d3d
00000100: e531 5a3d 0426 a33c 2f68 4e3d 3316 643d
00000110: f319 6fbd 60a4 1d3d 49a0 333d 46cb 303c
00000120: 067f b7bb e3a4 74bd 338d 53bd 1148 2a3c
00000130: 6157 44bc 8f7f 3b3c 75cf d2ba c7c8 88bd
00000140: 9b42 0fbd 9ab9 863b e327 48bd 697e 3e3c
00000150: 13d7 81bd 6c82 0bbd 760e 8c3c ec61 0ebd
00000160: 299c 67bc 6ee7 33bd 901d f83c a7cd 283b
00000170: 3a3d 813c b075 83bd a003 e4bb 05fa 353c
00000180: 0b5e 123d 554a c1bc 0251 fa3c 52bd 1e3d
00000190: 89b8 4ebd 4104 58bc 4dd0 8e3c d56f 8d3c
000001a0: f54f 303c 8dae 133c 181e a2bc f9a6 d0bb
000001b0: 0819 85bd cf33 b8bb 7294 5bbd 34eb a3bc
000001c0: c891 113d ac82 933c 8dde 733d 14e9 3ebb
000001d0: fc51 783d 76b1 67bd 8d71 943c 38fd ccbb
000001e0: bdde e3bc 7489 91b9 2c53 413d 3a43 2b3d
000001f0: e323 773d e169 193d c57d 2b3c 51e4 5b3d
00000200: b181 283d 33e5 16bc 7efe 053d 2cd2 e0bc
00000210: 6122 333d 53d4 293d 6111 3ebd 9776 203d
00000220: bce1 90bc 29dc 18bd 4eea 2a3d 4b7b 063d
00000230: 311c 3c3c 4710 29bd b997 193d 0511 a1bb
00000240: 38f7 2e3d ce8d a9bb 4bb4 293d 9467 c23c
00000250: 3789 173d 8e60 f53c c4a4 cbbc 5845 363d
00000260: 8ca9 8cbc fe7f e53c 0f27 233d 8e6e d5ba
00000270: 560c f73c 9ea4 7d3d 5164 863d b8a4 1db9
00000280: 24bc a8bb 4077 043d 78fd 8f3c 8f2b a93c
00000290: a25e 81bd 0337 8a3c 4753 513d b905 63bd
000002a0: 5c5e 183d c38f 3a3d ee7a 6dbd 9ce2 babc
000002b0: 9daa a83c 6d58 44bd 9a52 0b3d 6317 c03c
000002c0: a100 e5bc 1ab8 1fbb a04f 0bbd 9440 d73c
000002d0: 1874 5a3d 5884 27bd 6e08 f63c fd5d 89bc
000002e0: f4f2 023d 8782 563d d049 93bb ef9c b7bc
000002f0: af26 bbbc 8c7c f43c 5b2c 0ebd 37eb 7fbd
00000300: 55e1 a83c 7b81 bd3c 02a0 2b3d 0e72 f5bc
00000310: d5bd bf3c fac4 dabb 1e1a 30bc af00 7ebc
00000320: 3748 203d 996a c9bc 985d 073d 7e97 5dbc
00000330: 7b25 1f3d 12a1 50bc ab81 213d 7b4b ffbc
00000340: 56d8 45bd e374 2a3d 9cfb acbc 4add f33c
00000350: 4804 a1bc 3d53 f83c 902d b6bb 07ec 473d
00000360: 8681 f23c 9268 b33c 9df5 2bbd c3a1 1a3d
00000370: 4b96 463d 27af 8cbc 05b3 dfbc e36b 33bc
00000380: 55f4 fdbc 8016 683d 4e71 243d 87d0 56bd
00000390: 3f76 4ebc 9100 57bc c206 023d d76b 2abd
000003a0: b569 dd3c c9f6 ddbc 5f52 f4bc ad77 9fbd
000003b0: 1863 19bd 2e43 423d 8a3e e8bc 262a 203d
000003c0: e636 b4bb 752c 5bbd 1f63 1bbc 1baf 1d3d
000003d0: 359b ba3c ef8b 39bd 72bd 423d 1c16 5cbd
000003e0: efd2 2a3d d9fb 743d 924e 1bbd c3d4 63bd
000003f0: f326 45bd 6fd4 20bd 77a0 7e3d 1b06 9dbb

model.separableConv.1.weight f4 [16]
0.9891083 0.9915119 0.98258847 0.98889923 0.99766624 0.98804796 1.007481 0.9772569
1.0128647 0.9803932 0.99092215 1.0044701 0.986658 0.9956338 0.9891471 0.9897373
00000000: 3436 7d3f b9d3 7d3f eb8a 7b3f 8028 7d3f
00000010: 0e67 7f3f b6f0 7c3f 23f5 803f 822d 7a3f
00000020: 8da5 813f 0cfb 7a3f 13ad 7d3f 7a92 803f
00000030: 9e95 7c3f dbe1 7e3f bf38 7d3f 6c5f 7d3f

model.separableConv.1.bias f4 [16]
-0.002552559 -0.004047892 -0.009864334 -0.0007095886 -0.00016017434 -0.00638431 0.004936957 -0.0044837105
-0.0020319493 -0.011016475 -0.006294741 0.0071318727 -0.005860773 0.0018230787 -0.0058229673 -0.00658871
00000000: d548 27bb 2ea4 84bb 049e 21bc af03 3aba
00000010: 79f4 27b9 7933 d1bb 32c6 a13b 17ec 92bb
00000020: 742a 05bb 727e 34bc 1d44 cebb 7cb2 e93b
00000030: ba0b c0bb 5ff4 ee3a 97ce bebb 1be6 d7bb

model.separableConv.1.running_mean f4 [16]
0.089640096 0.008354584 -0.0835439 0.08881973 0.06521294 0.069989316 0.0150608765 -0.13815427
0.02513323 -0.027294798 -0.058904212 -0.07107699 0.06825185 -0.22998683 0.19525184 -0.17102027
00000000: 3a95 b73d aae1 083c 1019 abbd 1ee7 b53d
00000010: 5d8e 853d 8f56 8f3d e5c1 763c 5078 0dbe
00000020: 34e4 cd3c 5799 dfbc 8b45 71bd d090 91bd
00000030: a0c7 8b3d ab81 6bbe 19f0 473e f01f 2fbe

model.separableConv.1.running_var f4 [16]
0.20249188 0.20811492 0.2009318 0.21695592 0.25804135 0.26153883 0.25081655 0.20950912
0.28014186 0.22901954 0.23588988 0.1760989 0.15727027 0.31795073 0.20952484 0.24423692
00000000: 085a 4f3e 141c 553e 11c1 4d3e b129 5e3e
00000010: ff1d 843e 6be8 853e 076b 803e 8f89 563e
00000020: c16e 8f3e 1984 6a3e 1e8d 713e 4553 343e
00000030: 750b 213e 70ca a23e ae8d 563e 3e19 7a3e

model.fc.weight f4 [2, 176]
0.064005174 0.028797459 -0.039335348 -0.06089696 -0.024215791 -0.055119902 -0.06395315 0.03560242
0.037629396 0.018357577 -0.041511927 -0.0076984507 -0.006771257 0.02172959 -0.056912072 0.048314933
0.006289424 -0.053510934 -0.03429664 0.010344822 -0.023124555 -0.042952728 -0.027911447 -0.007495292
0.02237334 -0.06878608 0.07065906 -0.018496342 0.0011421323 -0.053595114 -0.0038870776 0.07091577
0.06327819 -0.05470292 -0.016609527 0.038716752 -0.009616519 0.028280176 0.07476192 -0.044972524
0.012945268 -0.05804902 -0.044136714 -0.0345929 -0.012229006 0.04696763 0.019009896 0.04113565
-0.053606912 -0.06283852 0.004767698 0.04508342 0.03524257 -0.0052056 -0.007028456 -0.0010438283
-0.056446753 0.068532094 -0.02100464 0.037963614 0.010421084 0.06345147 0.06735451 0.035199456
0.007821807 -0.057330366 0.045036495 0.04695076 -0.07157495 -0.029521331 0.0037943358 0.0052977037
0.02263963 -0.07416511 -0.055417348 0.0028817353 0.011337558 -0.05983368 0.04520221 -0.073135875
-0.0030192172 -0.0643488 -0.018625764 -0.0123386765 0.01976237 0.07398383 -0.060298033 0.060095243
-0.025672335 -0.07072953 0.073898755 0.028673185 0.02989336 0.010779175 0.041879974 -0.018970268
0.06537461 -0.014470642 0.048918396 0.07156706 0.052144732 -0.072003886 -0.014552341 -0.048301596
0.05775195 0.0051995884 0.04849409 0.05741276 -0.04966085 0.0060816826 0.056550622 -0.031186542
-0.02496523 0.029878452 0.0010480966 0.05658856 0.030590257 0.0656673 -0.053178508 0.039042756
-0.06803081 -0.021437114 -0.002237404 -0.051764432 0.011412158 -0.048792552 -0.07315728 0.012701557
-0.0057087834 -0.018298252 -0.00071805937 -0.03114767 0.03500114 -0.02220597 -0.06000107 0.07004037
0.043565843 -0.02330402 -0.056189638 -0.049323734 -0.07179239 0.022227796 0.050746247 -0.02772041
0.054977894 0.014372958 0.023525229 -0.06876798 -0.074352615 -0.07125385 -0.04333996 -0.064860195
-0.03814464 0.00237724 0.025413133 -0.06537363 -0.019079534 -0.01635318 0.06805732 0.06856856
0.03698194 0.036845885 -0.039853368 0.044239406 0.024454337 0.031560734 0.035546124 -0.051010735
-0.06495262 0.049361322 0.067409314 -0.0037934014 0.044748187 -0.039838083 0.0027601582 -0.07434348
0.029912688 -0.010717389 -0.013406335 -0.048743345 -0.06418512 0.021870272 -0.06658751 -0.010885323
0.039715555 0.0066203596 -0.060309276 -0.037539925 0.07192852 -0.052166004 -0.0314075 -0.032944143
-0.04211365 0.0071308934 0.04593984 -0.0448217 -0.05577693 -0.07485378 0.04143876 -0.021599496
0.06494829 -0.014820259 -0.069356635 0.06138025 -0.044464327 0.0479555 0.040320672 -0.054602344
-0.038370352 0.030198893 -0.04802496 0.006935525 0.019129127 -0.0415958 -0.07458478 -0.005083556
0.006720838 0.07364162 -0.040783104 0.039369952 0.06936937 -0.06577102 0.007876709 0.028498592
-0.05873702 0.006368714 -0.012899558 0.04175049 -0.042684942 0.026030453 0.015804961 -0.045287143
-0.028593788 0.0066128476 -0.050790142 -0.0003935394 0.03171918 0.031153716 0.03898945 -0.039862532
-0.061766718 -0.041805707 0.03590163 -0.03492699 0.03239932 -0.06641594 -0.01716533 -0.039696764
0.011804484 0.030924149 -0.018877562 0.049271267 -0.012513755 0.0021916395 -0.065061696 -0.008814767
00000000: 2515 833d a6e8 eb3c 1a1e 21bd 176f 79bd
00000010: 3260 c6bc 68c5 61bd def9 82bd d8d3 113d
00000020: 4821 1a3d a162 963c 6908 2abd 4943 fcbb
00000030: 6ce1 ddbb 4102 b23c a21c 69bd e1e5 453d
00000040: 8317 ce3b 482e 5bbd a27a 0cbd 547d 293c
00000050: b56f bdbc 33ef 2fbd 8ca6 e4bc 119b f5bb
00000060: 4b48 b73c b7df 8cbd b2b5 903d a485 97bc
00000070: 9ab3 953a 8d86 5bbd 57be 7ebb 4a3c 913d
00000080: ff97 813d 2b10 60bd b410 88bc 7595 1e3d
00000090: 9b8e 1dbc d4ab e73c c71c 993d 1c35 38bd
000000a0: 6418 543c cfc4 6dbd b3c8 34bd 49b1 0dbd
000000b0: 2b5c 48bc 2161 403d a4ba 9b3c db7d 283d
000000c0: ec92 5bbd 7bb1 80bd 593a 9c3b 64a9 383d
000000d0: 835a 103d bd93 aabb f64e e6bb 11d1 88ba
000000e0: b634 67bd 8e5a 8c3d ec11 acbc bc7f 1b3d
000000f0: 32bd 2a3c d8f2 813d 29f1 893d 4e2d 103d
00000100: 0927 003c 3fd3 6abd 3078 383d 714f 403d
00000110: e395 92bd b8d6 f1bc 64aa 783b 5c98 ad3b
00000120: bf76 b93c e1e3 97bd 4dfd 62bd 7fdb 3c3b
00000130: 2ac1 393c 2914 75bd f425 393d 43c8 95bd
00000140: 0fde 45bb 4ec9 83bd 0f95 98bc 2928 4abc
00000150: b2e4 a13c d684 973d 12fb 76bd 6e26 763d
00000160: ca4e d2bc a5da 90bd 3b58 973d 07e4 ea3c
00000170: ebe2 f43c 239b 303c 568a 2b3d 8967 9bbc
00000180: 20e3 853d 4616 6dbc a85e 483d c091 923d
00000190: b795 553d c676 93bd f16c 6ebc e5d7 45bd
000001a0: 4f8d 6c3d 4f61 aa3b bda1 463d a429 6b3d
000001b0: 2d69 4bbd da48 c73b a0a1 673d eb7a ffbc
000001c0: e283 ccbc a8c3 f43c 4960 893a 68c9 673d
000001d0: 6b98 fa3c 947c 863d b5d1 59bd 4ceb 1f3d
000001e0: bd53 8bbd e39c afbc 69a1 12bb f106 54bd
000001f0: 0ffa 3a3c b3da 47bd 7cd3 95bd 311a 503c
00000200: bf10 bbbb 37e6 95bc 263c 3cba 6629 ffbc
00000210: 5b5d 0f3d 4be9 b5bc afc3 75bd 5371 8f3d
00000220: 1972 323d 12e8 bebc 1b27 66bd af07 4abd
00000230: e307 93bd 1117 b63c 4cdb 4f3d ea15 e3bc
00000240: 8030 613d 8e7c 6b3c fbb7 c03c 3ad6 8cbd
00000250: 2f46 98bd 8aed 91bd 3e85 31bd 6cd5 84bd
00000260: 8e3d 1cbd 78cb 1b3b 342f d03c 9ce2 85bd
00000270: af4c 9cbc 1bf7 85bc a361 8b3d ac6d 8c3d
00000280: 607a 173d b6eb 163d 493d 23bd 6134 353d
00000290: 7654 c83c d445 013d d098 113d a2f0 50bd
000002a0: e105 85bd 192f 4a3d e50d 8a3d b79a 78bb
000002b0: e049 373d 422d 23bd c5e3 343b 6541 98bd
000002c0: 740b f53c fd97 2fbc 3fa6 5bbc 1aa7 47bd
000002d0: 7d73 83bd 4929 b33c 085f 88bd 5b58 32bc
000002e0: c7ac 223d 9aef d83b dc06 77bd 77c3 19bd
000002f0: 434f 933d 05ac 55bd 27a5 00bd 70f0 06bd
00000300: 5d7f 2cbd 45aa e93b 6a2b 3c3d f596 37bd
00000310: 5a76 64bd f04c 99bd b0bb 293d 6df1 b0bc
00000320: 9c03 853d acd0 72bc da0a 8ebd db69 7b3d
00000330: 3a20 36bd fd6c 443d 4a27 253d b5a6 5fbd
00000340: 3b2a 1dbd ab63 f73c d2b5 44bd 6743 e33b
00000350: b0b4 9c3c 5c60 2abd e8bf 98bd f593 a6bb
00000360: 7a3a dc3b 6bd1 963d 2f0c 27bd 6342 213d
00000370: 8711 8e3d f5b2 86bd 500d 013c e175 e93c
00000380: 3b96 70bd a5b0 d03b ab58 53bc 9002 2b3d
00000390: 68d6 2ebd d13d d53c 6879 813c 037f 39bd
000003a0: 853d eabc 96b0 d83b 5309 50bd f753 ceb9
000003b0: f9eb 013d 1436 ff3c 67b3 1f3d e546 23bd
000003c0: 19ff 7cbd 763c 2bbd 960d 133d 9a0f 0fbd
000003d0: 26b5 043d 1505 88bd 4e9e 8cbc 1399 22bd
000003e0: 9867 413c a454 fd3c 1ea5 9abc abd0 493d
000003f0: 7e06 4dbc 9ca1 0f3b 113f 85bd d06b 10bc

model.fc.bias f4 [2]
-0.020978276 -0.0075440933
00000000: a2da abbc 7134 f7bb
