src/conv_based/checkpoint/waveletEGGNet.pth (torch, 10285 bytes, 18 tensors)

model.conv1.0.weight f4 [2, 1, 1, 59]
000000 72 f9 22 3c 43 71 9e 3d 5b 14 d1 bd f6 54 bc bd
       0.009947168 0.07736447 -0.102089606 -0.091958925
000010 fc e3 3c bd bb 99 24 3d f4 00 8f 3b 8f 77 e4 3d
       -0.04611586 0.04018567 0.0043641273 0.111556165
000020 81 92 1a bb 35 1b 34 3d 53 da f4 bc b1 fe 85 bc
       -0.0023585858 0.04397126 -0.029889261 -0.016356798
000030 27 82 ec bd 40 a6 9f bd 4b 92 3d bd ec 0b 2b 3c
       -0.11548262 -0.077953815 -0.046282094 0.010439854
000040 d1 37 5f 3d 75 ab a3 3d 57 15 b1 bd 3e 07 5f bd
       0.05449659 0.07991687 -0.086466484 -0.054450266
000050 66 d2 4a 3d 58 07 e0 3d 34 f0 dd bc 97 64 c3 3d
       0.049517058 0.10938901 -0.027092077 0.0954067
000060 34 9a c5 bc 93 d4 20 3c f7 02 e3 3d 90 f2 04 be
       -0.024121381 0.009816307 0.1108455 -0.12983155
000070 03 a4 c1 bd 82 c9 4a bd 77 94 8e bd 7d d0 be 3d
       -0.09455111 -0.04950858 -0.06961911 0.0931711
000080 7e b2 d2 bd 09 b0 9d bd 3d c2 db bd 5e 4a 0d be
       -0.10287951 -0.07699592 -0.107304074 -0.137979
000090 fd 4b b6 bd de e5 cf 3d b2 4b 54 3d 80 6b 7a 3d
       -0.08901212 0.101512656 0.05183 0.061137676
0000a0 63 8b 00 3c ae 29 86 bd 45 28 aa 3c 30 04 01 be
       0.007845732 -0.065509185 0.020771155 -0.12599254
0000b0 52 95 cd bd 39 6f 95 bd 7b f8 9f 3d 88 69 98 3d
       -0.10038246 -0.07296605 0.07811066 0.074420035
0000c0 95 cd 6f bd 1a 1a cd bb ba 02 a3 3d 7f 85 fc 3d
       -0.058545668 -0.006259215 0.079595044 0.1233015
0000d0 ac 10 33 3d 1c f4 0a 3c d3 82 9f 3d 1f 18 af bd
       0.04371707 0.008481052 0.077886246 -0.085495226
0000e0 8c 08 86 3c d9 a3 db bd eb 6a c2 bd 27 1e a7 bd
       0.016361497 -0.10724611 -0.09493049 -0.08160048
0000f0 04 4e 36 3d 88 0a 15 3d 36 92 c5 bd 57 d7 82 3c
       0.044507995 0.036386997 -0.09647028 0.015971823
000100 50 df 3c 3d 3b 7c 25 bd 4c a6 7a bc 88 93 4f 3c
       0.046111405 -0.04040168 -0.015298437 0.012669452
000110 ff 63 81 3d 22 ae d6 3d 3f 9c fc bd 4f 5a 94 bd
       0.06317901 0.10482432 -0.12334489 -0.072437875
000120 cb 3b db 3c 0f d2 b2 3d 4e 21 bf 3d 2f f0 bc 3d
       0.02676191 0.08731472 0.09332524 0.09225499
000130 8a 71 ff ba 8e 79 17 be 22 29 bc bc de 97 e7 bd
       -0.0019488793 -0.14792463 -0.022968832 -0.11308263
000140 b7 c7 16 be 90 5b c6 3d dc b3 b2 3d b8 e3 0a be
       -0.14724623 0.09685433 0.08725712 -0.1356343
000150 83 fd b8 3c 83 6a ac bc 52 fb 97 bc 3c 4e 58 bd
       0.022581821 -0.021046882 -0.018552456 -0.052808985
000160 f0 78 70 3d dc fc 88 bd 8d 8c 6f 3d 65 bc 9a 3d
       0.058709085 -0.06688854 0.05848365 0.07555465
000170 16 8a cd 3d 88 e5 5a 3d 1a 7b ff bd fe 1a a1 bd
       0.100361034 0.053441554 -0.12474652 -0.078664765
000180 70 4a 98 3d 1f d9 26 3d 7e e0 ac bd 97 3b 63 bd
       0.07436073 0.040734407 -0.08441256 -0.05547675
000190 ad 7b 12 3e c5 57 de 3d 06 e1 14 bd 6b 18 6c bc
       0.14304991 0.108565845 -0.03634741 -0.014410119
0001a0 c5 60 e1 bd 2b 93 a6 3b 0f 23 c5 bd 65 fa cd bd
       -0.110047854 0.0050834618 -0.096258275 -0.100575246
0001b0 93 23 96 bb 9f 83 df 3c 83 36 26 bd 21 6d bd 3d
       -0.0045818775 0.027284442 -0.04057933 0.0924933
0001c0 d3 75 84 bd 79 fc 03 3e 6a 86 c2 3d 56 35 e1 bd
       -0.06467786 0.1288928 0.09498294 -0.10996501
0001d0 b1 db 0b bd dd d4 8b 3b
       -0.03414506 0.0042673186

model.conv1.1.weight f4 [2]
000000 3d 13 76 3f 87 d6 79 3f
       0.96123105 0.9759297

model.conv1.1.bias f4 [2]
000000 b0 5a 2e 3c 14 d5 90 3b
       0.010641739 0.004419932

model.conv1.1.running_mean f4 [2]
000000 42 bd f7 b9 3e 7e 76 b9
       -0.0004725252 -0.00023507417

model.conv1.1.running_var f4 [2]
000000 dc 9f bf 3e d0 52 d8 3d
       0.3742665 0.1056267

model.conv1.3.weight f4 [4, 1, 59, 1]
000000 d8 8b 98 3d f2 e7 48 3d 6b ec 97 3d df af e6 3c
       0.07448548 0.049049325 0.0741814 0.028160034
000010 0b a3 44 bd d8 0b 96 3d 62 5f d4 bd 41 b9 6b bd
       -0.048007052 0.07326478 -0.10369755 -0.05754972
000020 f0 a3 e4 bc 8c f9 5a bd a8 fa 53 bd 0d e4 bb bd
       -0.027910203 -0.053460643 -0.051752716 -0.091743566
000030 98 46 08 bd 10 49 fe 3c 46 ce b9 bd 72 05 98 bc
       -0.03327045 0.031040698 -0.09072547 -0.018557284
000040 49 b9 bb 3d 01 61 48 bc 91 f8 10 bb 4e ce c6 3b
       0.091662 -0.012230159 -0.0022120813 0.006067074
000050 ff fc d0 3c 07 4f 00 3e 6f 20 1d 3e 9c eb b9 3d
       0.025511263 0.12530147 0.15344404 0.09078142
000060 87 79 f7 3d 8d be 11 3c cf 4c c4 bd b3 3d 0c bd
       0.120837264 0.0088955285 -0.095849626 -0.03423853
000070 73 20 e0 3d 36 36 9d 3c 9e 5f 3b bd 59 bc 7d bd
       0.10943689 0.019190889 -0.045745485 -0.0619472
000080 09 db e0 bd 12 eb be bd af 0c 28 bc ce 76 d8 3d
       -0.10979278 -0.0932218 -0.01025693 0.10569535
000090 bf 16 ad 3d 8c 38 e4 bd 6d 3d 9f 3d 16 18 b7 bd
       0.08451604 -0.11143598 0.07775388 -0.08940141
0000a0 7c c4 55 bd 7c 77 3e bd 0c 77 e6 bc bd 00 1c bd
       -0.052189335 -0.046500668 -0.028132938 -0.03808664
0000b0 ab 1f fa bd ee 4d ff bd 31 85 c1 bc b5 dd 81 3b
       -0.122130714 -0.12466036 -0.02362308 0.003963197
0000c0 a5 c2 7d bd 11 62 81 3d ab b3 da bd d8 ad ca bb
       -0.061953206 0.06317533 -0.106788 -0.0061852746
0000d0 c5 c2 03 3e f5 43 df bc 7d 6f ef 3d e2 9a 9c 3d
       0.12867267 -0.027254084 0.116911866 0.07646729
0000e0 04 d6 a8 bd 09 57 c3 3d ba aa c1 bb 05 b3 02 bd
       -0.08243945 0.09538085 -0.005910245 -0.031909008
0000f0 07 f1 d5 3d e8 1f ea bd db d7 af 3b 36 45 fc bc
       0.10446363 -0.11431867 0.005366308 -0.030794721
000100 cf 16 cc 3d 78 1d 17 3d 8e b2 58 3d 87 ea 26 3d
       0.09965288 0.036893338 0.052904658 0.040751006
000110 14 5d 27 bd ef ea 4f bd c8 ca 05 be f0 9a 56 3d
       -0.04086025 -0.05076116 -0.13065636 0.052393854
000120 9c 96 d3 3d 37 c6 ab 3d dc bf b1 bd 20 40 85 3c
       0.10331461 0.08387416 -0.086791724 0.016265929
000130 f7 6f af bd 33 93 6b bd 14 8b 81 bd 1b 4d 55 3d
       -0.085662775 -0.057513427 -0.06325355 0.052075487
000140 7b 7c 3e bd b8 56 1e 3c 4b 76 36 3c 6a 42 9f 3d
       -0.046505433 0.00966423 0.011136602 0.07776339
000150 59 8d 9d bd e1 cd 80 bd 9c ea 84 bd 1f f5 e0 3d
       -0.076929756 -0.06289268 -0.06490061 0.10984253
000160 79 f2 24 bd b3 3d f1 3d 58 b7 77 3d 24 c3 23 3c
       -0.040270302 0.11779346 0.060477585 0.009995256
000170 3b b8 6c 3a e9 f0 69 bc 6e ee 4c 3c 5c 03 20 bd
       0.0009030138 -0.014278629 0.012508018 -0.039065704
000180 18 f1 4c bc 6f 3d 80 bb c9 a6 e4 bd 1a 4c c2 bd
       -0.012508653 -0.0039135735 -0.11164624 -0.094871715
000190 46 96 b9 3d 91 06 02 be 81 77 93 bc c4 18 04 3e
       0.090618655 -0.12697817 -0.01800132 0.12900072
0001a0 83 b0 3a 3d b7 08 0b bb f6 d4 df bd b7 55 8b 3d
       0.04557849 -0.0021214911 -0.10929291 0.06803458
0001b0 94 0d ab bd de 2a 86 bb 44 6a 24 bd 06 dc 8c bc
       -0.08352199 -0.0040944656 -0.040140405 -0.01719476
0001c0 d5 1b 29 3d d5 04 ec 3d fb 04 0c 3d a4 42 15 3e
       0.04128631 0.11524359 0.034184437 0.14576203
0001d0 34 38 ad 3d 12 bc 81 bd 88 96 6f 3d cc a4 ba bd
       0.084579855 -0.063347 0.058493167 -0.09113464
0001e0 16 b6 2c bd ed de 42 3d 6f 80 43 3d c7 c3 c2 3d
       -0.04216584 0.04757588 0.047729906 0.09509998
0001f0 89 93 2e bd f9 e1 5b 3c 00 1b 90 3d 68 81 0f be
       -0.04262117 0.013420575 0.070364 -0.14014208
000200 74 cf c7 3d a8 eb ae bd 1c 7d ca 3b 58 50 90 bc
       0.097563654 -0.085410416 0.006179465 -0.017616436
000210 80 7c 96 bd f1 59 87 3c 78 d0 d0 3d 4c 40 2b bd
       -0.07347965 0.01652238 0.10196012 -0.041809365
000220 e3 d9 c0 bd d8 17 66 bd 09 83 0d be 21 73 9f 3d
       -0.094165586 -0.056175083 -0.13819517 0.07785631
000230 34 85 83 bd 31 42 ad bd b6 18 af bd 15 1c 9e 3d
       -0.06421891 -0.08459891 -0.08549635 0.077202
000240 f0 d5 94 3d df 12 b8 3d 7b a6 53 3d 3f 26 40 bd
       0.07267368 0.089879744 0.05167244 -0.046911474
000250 16 5e 01 bd 8c 53 58 3d 4e 98 ec 3d 7e c2 22 3d
       -0.031583868 0.05281405 0.11552487 0.039736263
000260 54 df 88 bd 42 d1 41 bd 36 73 e7 bd 71 f9 0e 3d
       -0.066832215 -0.047318704 -0.113012716 0.034905855
000270 25 4b a4 bd c6 58 bf bd 82 a1 04 3e e3 99 9a bd
       -0.08022145 -0.09343104 0.12952235 -0.07548883
000280 f7 d7 c4 bc 04 a9 d9 3c 16 e8 f6 3b 0f 65 c2 bd
       -0.024028761 0.02656985 0.007534991 -0.09491932
000290 39 c9 f7 bd b0 99 b6 3d 06 1e f6 3b c0 7a c7 3d
       -0.12098927 0.08916032 0.0075109033 0.097402096
0002a0 14 7b 46 bd 80 c2 d8 3c d3 98 21 bd 65 c1 ef 3b
       -0.04845722 0.026459932 -0.039452385 0.0073167556
0002b0 30 cc 8a bd d4 ac 34 3d 5e 08 45 3d 1b 73 6d bb
       -0.06777227 0.044110134 0.048103683 -0.0036231938
0002c0 e1 e6 4a bd 17 62 af bd f6 2d c1 3d 4c de c8 bd
       -0.04953659 -0.08563631 0.094325945 -0.09808025
0002d0 ed 7f 63 3d e4 b1 4a bd 1b 41 6e bd a6 7e ae 3c
       0.05554192 -0.049486056 -0.05816756 0.021300625
0002e0 91 11 b0 bd fd a6 9d 3c ff ad cd 3c 56 d1 ad bd
       -0.085971005 0.019244665 0.025107382 -0.08487193
0002f0 1b 5c 72 3c fb c0 41 3d 2c c2 2b 3d 2d 4b 6a bc
       0.0147924675 0.04730318 0.041933224 -0.01430015
000300 34 10 dd bd 38 7f 21 bd 0b c4 0e 3d 2f e6 2c bd
       -0.10794106 -0.039427966 0.03485493 -0.042211708
000310 e4 0a 62 3d 38 5b a2 3d 12 d2 c0 bd bb 0d 9b bc
       0.055186167 0.07927555 -0.09415068 -0.018927446
000320 0a 3a 27 3d dc 29 86 3c c4 e5 60 bc 9f 15 33 3c
       0.040826835 0.016377382 -0.013726655 0.010930448
000330 16 72 cc bd 7b 47 3c 3c 25 a6 be 3d cf 44 f1 3d
       -0.09982698 0.011491652 0.09309033 0.11780702
000340 1c a9 87 3d b7 cc 28 3c cb b3 51 3d 62 ee 83 bd
       0.06624052 0.010302714 0.051196855 -0.06441952
000350 e4 85 f0 bd 40 7c 01 be 39 74 f9 3d b6 ad ac 3d
       -0.117442876 -0.12645054 0.12180371 0.0843157
000360 1e 76 c2 bd 79 25 2f 3d d4 25 c5 3d 81 8e 05 3e
       -0.09495185 0.042760346 0.09626356 0.13042642
000370 2c aa f8 3d 1a 2a c6 3d bc 17 f9 bc 9b 6f e9 bc
       0.12141833 0.09675999 -0.030406825 -0.0284956
000380 91 15 e8 3d 49 59 9c 3d ca d4 c1 bd c9 a4 c2 3d
       0.113322385 0.07634217 -0.094644144 0.095040865
000390 cd 8a 8b 3d f5 67 97 3d e4 7c d5 bd 27 1d db 3c
       0.068135835 0.07392875 -0.104242116 0.0267473
0003a0 29 8e 6d bd 5d 6e b1 3d 0b b4 5d bc b3 ea 59 3d
       -0.057996903 0.08663628 -0.013531695 0.053202342

model.conv1.4.weight f4 [4]
000000 a8 18 87 3f 70 91 7a 3f 54 9e 77 3f d5 fb 80 3f
       1.05544 0.9787817 0.96725965 1.0076853

model.conv1.4.bias f4 [4]
000000 36 c0 2d 3d 67 89 47 bc 67 d6 a1 bc 07 44 04 3d
       0.042419635 -0.012178755 -0.019755555 0.03229144

model.conv1.4.running_mean f4 [4]
000000 50 2f 37 bd 08 2c a8 3c 9a 3e be bd f0 c4 cd 3d
       -0.044722855 0.020528808 -0.09289284 0.100473285

model.conv1.4.running_var f4 [4]
000000 5c c2 c1 3e 49 e3 2c 3e 32 a4 a9 3e 70 fe b6 3e
       0.37843597 0.16883577 0.33133084 0.35740995

model.separableConv.0.weight f4 [4, 4, 1, 16]
000000 b6 50 93 bc f1 d5 cd 3c ce f4 7b bd ef ac 64 3d
       -0.017982822 0.02512643 -0.06151276 0.055828985
000010 f7 39 e0 bd c0 c0 55 3c d0 61 e6 bd 10 ce 16 be
       -0.10948556 0.013046443 -0.11249125 -0.14727044
000020 70 e7 ff bd a7 4d c1 3d 2b 3e 41 3d 02 bb be 3d
       -0.12495315 0.09438639 0.04717843 0.09313013
000030 35 a3 94 3d 4a ab 08 be a5 1d d5 bd a0 bc 13 bd
       0.07257692 -0.13346592 -0.10406045 -0.03606856
000040 8c 70 e7 bd 6a 0d 78 3d 3e a9 01 be f3 96 be bd
       -0.113007635 0.060559668 -0.12662217 -0.09306135
000050 b8 00 21 be 29 36 d4 bd fa fa 8f 3d fa 12 91 3d
       -0.1572293 -0.10361893 0.07030292 0.070836976
000060 24 92 6b 3d bd 1b 83 3d 62 8b 88 3d de 1d 9d bd
       0.057512417 0.06401775 0.0666721 -0.07671712
000070 5b 68 4c 3c 9a 14 80 3d 3a b7 e9 bb 8d c3 a8 3d
       0.012476052 0.062539294 -0.007132438 0.08240423
000080 13 c4 0b 3d 1a 8d 6d 3d 63 24 5f bd 91 b2 8e 3d
       0.034122538 0.057995893 -0.05447806 0.069676526
000090 7d 7f a4 3b 58 c2 28 bd 96 0f a8 bd 46 23 8e bd
       0.0050200806 -0.041200966 -0.08206098 -0.069403216
0000a0 81 c2 c0 bd 76 81 b1 3d fd d3 9f 3d 26 0b 05 bd
       -0.09412099 0.08667271 0.078041054 -0.032481335
0000b0 e4 8d aa bd bf 82 c0 3d 27 b4 9a 3d f0 c6 28 bb
       -0.08327845 0.09399938 0.075538926 -0.0025753342
0000c0 8d 5f 3c bd d5 94 f4 3d 0f 8d 2b 3d 5c 76 d9 bd
       -0.04598956 0.1194245 0.04188257 -0.106182784
0000d0 0a 06 04 3e ec e2 ce 3d 7b f2 33 bd 1e f0 8a 3d
       0.12892929 0.10101876 -0.04393242 0.0678408
0000e0 38 3e ac bd 92 5f 6e bc ec 09 07 3e 81 9f 10 3d
       -0.08410305 -0.014549153 0.13187379 0.035308365
0000f0 a5 16 a2 bd d4 f7 27 bd f0 1f 0d bd b0 d5 b0 bc
       -0.07914475 -0.04100783 -0.034454286 -0.02158627
000100 52 51 d5 bc 15 4e ab 3d 29 dc d5 bc c8 91 e3 bd
       -0.026039753 0.08364502 -0.026105957 -0.1111179
000110 83 66 84 bc ee 5e 3a 3d e0 bc 31 3d 25 05 10 be
       -0.016162163 0.04550069 0.043393016 -0.14064462
000120 4f a0 11 bd 2a 52 e3 bd fc db 99 bd fd b1 02 3d
       -0.035553273 -0.11099656 -0.07512662 0.031908024
000130 1c c3 b8 bd dc 2c 28 3d 60 fd d3 3d 74 32 bc 3b
       -0.09021589 0.041058406 0.10351062 0.005743319
000140 94 a1 e8 bd d7 fb 87 bd ca 24 ee 3c a2 b2 d6 bd
       -0.113589436 -0.066398315 0.029070277 -0.1048329
000150 c5 af 8b 3d 1d f1 ea bd df fa 07 be 2d 05 0e be
       0.06820635 -0.1147177 -0.13279293 -0.13869162
000160 70 d9 1b bd b7 0d 98 3d 21 03 0c be f6 43 bf 3d
       -0.03804916 0.07424491 -0.13673069 0.093391344
000170 0b 3d 86 bd 1d 85 ea 3c 45 9d 47 bc 3b eb 00 be
       -0.06554612 0.028627926 -0.012183492 -0.12589733
000180 6c ce a8 3d 97 8c 15 3d 27 6a bd 3d c2 d0 e1 3c
       0.08242497 0.03651103 0.092487626 0.027565364
000190 d1 9a ed bd 15 65 af 3d b3 ca 51 bb 34 8c 48 3d
       -0.116017945 0.08564202 -0.0032011687 0.048961833
0001a0 f0 40 e9 bd aa 0c 50 bd 7a af 04 be 1e 1a 31 bd
       -0.11389339 -0.050793327 -0.12957564 -0.043237798
0001b0 59 02 f7 3c 45 82 e1 bd 50 ca d9 3c f5 92 59 3d
       0.030152487 -0.11011175 0.026585728 0.053118665
0001c0 97 b4 32 3c ca 16 c4 bd c0 ad d7 bd 1f a4 11 bd
       0.010907314 -0.09574659 -0.10531187 -0.03555691
0001d0 e9 fa 86 3d dd 91 fb 3d 73 23 76 3d 88 24 8c bc
       0.06590826 0.122836806 0.0600924 -0.017107263
0001e0 68 01 75 3d e8 31 dc bd 0a 4c c5 bd d7 2d a0 3d
       0.059815794 -0.10751706 -0.09633644 0.07821243
0001f0 bf 24 85 bd 7f 7f ca 3d b6 31 11 bd 41 d4 b4 bc
       -0.065011494 0.09887599 -0.0354478 -0.022073867
000200 ac 79 e0 bd 1c b2 89 3d b0 fc ed bb 0d c1 c9 3d
       -0.10960707 0.06723425 -0.0072627887 0.09851275
000210 22 cd 91 3d 85 3f 7e 3d 40 8b 25 bb 39 d0 24 bd
       0.07119204 0.062072296 -0.0025260001 -0.04023764
000220 f8 82 d5 bc c1 85 ad 3c 29 5e 73 3d f6 20 b8 bd
       -0.026063427 0.021181943 0.05941597 -0.08990662
000230 0b b8 e7 3d 26 d2 d3 ba 4c 65 cd bd 00 75 7c bd
       0.113144 -0.0016160652 -0.100290865 -0.061635017
000240 68 c5 b9 3d 07 15 c6 3d 29 01 07 be 36 d8 95 3d
       0.090708554 0.096719794 -0.13184036 0.073166296
000250 94 b6 40 3d f5 00 8e 3d 42 7e c6 3d 3e 19 a8 bd
       0.04704912 0.06933776 0.096920505 -0.082079396
000260 af e0 e6 3c 8e a6 48 3d c7 0f 2c bd 0b 9b 46 3d
       0.02818331 0.048986964 -0.042007234 0.048487704
000270 1d dd fc bc 3e fe af 3d 51 49 ef bc 3b ae 31 bd
       -0.030867154 0.08593415 -0.029209765 -0.04337905
000280 7a 44 09 3d 85 71 47 3d 04 8f 87 bd f9 ee cc bb
       0.03351257 0.048692245 -0.06619075 -0.0062540737
000290 f8 0f 88 3d 6d e8 83 bb 58 f0 6a 3d ac e2 97 bc
       0.06643671 -0.00402551 0.057358116 -0.018540703
0002a0 d6 77 6a 3d 6a 02 b3 bd 13 2f 6e bd a9 c0 ec bc
       0.05724319 -0.08740695 -0.058150362 -0.028900461
0002b0 2c bd 1f 3e 39 0c 02 bb 24 97 68 3c f4 a9 53 bd
       0.15599507 -0.001984371 0.014196191 -0.05167575
0002c0 72 6c e9 3d fa f2 d7 3d ff 6d ec bd c7 12 04 be
       0.113976374 0.10544391 -0.115444176 -0.12897788
0002d0 b3 51 e0 bd ba 03 e8 bb 6e 2d 10 bd d6 48 ba bd
       -0.10953083 -0.0070805224 -0.035199575 -0.090959236
0002e0 6a 1b 53 bd 2e 53 d1 3c fe d1 a0 bd 89 09 54 3c
       -0.051539816 0.025552358 -0.07852553 0.0129417265
0002f0 e4 9b 6d bd e8 46 a4 bd 6f e6 20 bc 0a 69 97 3d
       -0.058009997 -0.08021337 -0.009820565 0.073930815
000300 f2 12 ab bd e2 c1 43 bc 4a 6f 8a bd b6 ad e6 3d
       -0.08353223 -0.011948081 -0.06759508 0.112636015
000310 b7 6f 08 be cb e0 09 be b1 21 de 3d 7f f9 dd bd
       -0.13323866 -0.13464658 0.1084627 -0.10838603
000320 67 ef 88 bc c4 74 3b bd 76 e7 7b bd 4a 00 62 bd
       -0.016715718 -0.045765653 -0.061500035 -0.055176057
000330 c7 ed 31 3d d8 35 cc bc 7a a1 22 be ed d9 f7 bd
       0.043439653 -0.024928018 -0.15881911 -0.12102113
000340 2a 4d 3c bd 42 42 52 3d 27 6a c7 bd 79 20 d6 3d
       -0.045972027 0.05133272 -0.09737044 0.104554124
000350 2d 16 57 bd ac ad 16 bd 92 e0 ae 3d 64 20 1e 3d
       -0.052511383 -0.03678672 0.08538927 0.03860511
000360 b9 e1 b3 3d 29 cd 94 3d 6e 8d 4c bd 8c 24 d6 bd
       0.087832876 0.07265694 -0.049939565 -0.104561895
000370 04 1c 37 bc 03 cf dd 3d 35 cd 24 bd 68 24 f7 bd
       -0.011176113 0.108305 -0.040234763 -0.12067491
000380 33 7c e9 3c 89 0c f7 3d 80 33 b9 bc e8 17 9b bd
       0.028501606 0.12062938 -0.022607565 -0.07572919
000390 78 71 08 be b2 4a 89 3b ea 92 ff bc 6b 78 82 bd
       -0.13324535 0.0041898126 -0.031197984 -0.06370624
0003a0 83 b8 37 3d fe 01 39 3d 60 e2 a8 3d 87 8a 96 3d
       0.0448537 0.045167916 0.082463026 0.07350641
0003b0 13 f8 12 bd c9 3e db bd f0 cd d9 bd 2b 68 da 3d
       -0.035881113 -0.10705335 -0.106349826 0.106644
0003c0 7a 41 0d 3d ec 5a 2a 3d 61 49 09 be b4 be b7 3d
       0.03448627 0.041590616 -0.13406898 0.089719206
0003d0 fd 53 b3 3d eb 27 9f 3d f3 bb 0d be d6 bf 7a bd
       0.08756254 0.077712856 -0.13841228 -0.061218105
0003e0 66 a5 e6 bd 2e 0d e4 3d a8 b7 8c bd d5 a0 71 bd
       -0.11262016 0.11135326 -0.06870967 -0.058991272
0003f0 39 b0 af 3d be bf 57 bd 80 24 8b bd 51 27 7e ba
       0.08578534 -0.052673094 -0.06794071 -0.00096951897

model.separableConv.1.weight f4 [4]
000000 67 c5 73 3f 67 92 70 3f 46 6c 76 3f a0 13 6d 3f
       0.9522309 0.9397339 0.9625896 0.9260807

model.separableConv.1.bias f4 [4]
000000 41 f6 a3 bc 20 f6 13 bd 89 72 87 bc c6 19 12 bd
       -0.020014884 -0.036123395 -0.016534107 -0.03566911

model.separableConv.1.running_mean f4 [4]
000000 08 62 42 bd 8b 53 18 be 62 15 aa bc 9d 44 1f be
       -0.04745677 -0.14875619 -0.02076215 -0.15553518

model.separableConv.1.running_var f4 [4]
000000 dd 41 81 3f 9c 12 d8 3f 16 10 51 3f f0 dd b3 3f
       1.0098225 1.6880679 0.8166517 1.4052105

model.fc.bias f4 [2]
000000 d7 a0 d9 3c ff 88 f5 3c
       0.026565952 0.029972551

model.fc.weight_g f4 [2, 1]
000000 3e b1 08 3f d7 bb 02 3f
       0.5339545 0.5106787

model.fc.weight_v f4 [2, 44]
000000 d0 89 33 bd a2 b9 04 be 43 e5 e6 3d 59 c3 9d bd
       -0.0438326 -0.12961438 0.11274197 -0.07703275
000010 71 a0 f7 3c 72 3d 06 3e 4d ac 48 3d 5b f0 c1 bb
       0.030227872 0.13109377 0.048992444 -0.005918545
000020 f2 c8 ec 3d aa 1c 97 3b 2c b9 99 bd 8d c1 3e 3e
       0.11561765 0.0046115713 -0.07506022 0.18628521
000030 ab ef 4a 3d 93 9d 0a be 2a c1 05 bd 9b e3 91 bd
       0.04954497 -0.13536672 -0.03265492 -0.071234904
000040 3d 4b 10 3e d5 f8 9e bc 16 91 05 be 47 a0 9b 3c
       0.14091201 -0.019405762 -0.13043627 0.018997325
000050 06 11 05 3e c0 14 9a 3d 34 a9 2b 3d 41 0f 97 3c
       0.12994775 0.07523489 0.04190941 0.01843989
000060 98 bf d4 3d f3 f0 aa 3c 07 be 9f bc a2 95 05 be
       0.10388106 0.020866847 -0.019499792 -0.13045362
000070 c5 ef da bd 03 d2 ab 3d 1d 36 7a bd 7f fc 46 3d
       -0.10690264 0.08389666 -0.061086763 0.048580643
000080 41 d2 64 3d 5d ce 27 3c ad 54 bc bd de 9a 0e 3e
       0.055864576 0.010242072 -0.09195838 0.13926265
000090 f1 2e 9a bd 9d 0c 15 3e e2 e9 b2 bd f3 fb 8a bb
       -0.075284846 0.14555593 -0.08736016 -0.0042414605
0000a0 2f f5 ca 3d d8 f4 a3 bd e3 14 0d 3e 8e 91 f3 bd
       0.09910046 -0.080056846 0.13777499 -0.11892997
0000b0 c7 0b ea bd e7 a1 9d bd 47 6f 4d 3d d4 70 1f 3e
       -0.114280276 -0.07696896 0.05015495 0.15570384
0000c0 fb f1 4d bd 78 c1 90 3d 2d a9 0f bc f0 5f cb bb
       -0.0502796 0.07068151 -0.008768362 -0.006206505
0000d0 7c ba 0e 3e e5 17 de bd 83 b0 90 3c 8f f8 18 3e
       0.13938326 -0.10844401 0.017662292 0.14938568
0000e0 3a 3c 01 bd 7b f2 cd 3d 1d eb 89 bd 73 0a bb 3d
       -0.031551577 0.10056015 -0.067342974 0.091328524
0000f0 ca 7f 1f be 91 04 05 bd bb b7 70 bd 87 75 c9 3c
       -0.15576091 -0.032475058 -0.05876897 0.024592174
000100 49 30 30 3d d1 09 c5 3d 4e 03 17 bc 1f ac 1c bc
       0.0430148 0.09621013 -0.0092170965 -0.009562521
000110 b6 56 89 3d 07 16 d2 bd a2 55 c6 3d 50 57 0b be
       0.06705992 -0.10258108 0.09684302 -0.13607526
000120 ad df 21 bd 5a d0 b3 bc 1e a0 1b 3d 22 2f b2 3d
       -0.039519954 -0.021949936 0.037994497 0.08700396
000130 52 ca f4 bc 46 4f 1b be 63 da 80 3d 4e 29 9f 3d
       -0.02988163 -0.15166959 0.06291654 0.0777155
000140 a4 90 31 3d 8f 86 d8 bd 21 21 72 3d c9 e5 ff 3d
       0.04335083 -0.1057254 0.059113625 0.12495
000150 ef f3 0d 3c af 9b 1c be 00 ae 01 3e c4 fc fd bd
       0.008664115 -0.15293764 0.12664032 -0.12401727
